=== Model Information ===
Model Type: CNNAutoencoder
Input Size: 178
Sequence Length: 10
Number of Parameters: 103883

=== Model Architecture ===
CNNAutoencoder(
  (encoder): Sequential(
    (0): AttentionConvBlock(
      (attention): AttentionLayer(
        (attention): Sequential(
          (0): Linear(in_features=178, out_features=89, bias=True)
          (1): ReLU()
          (2): Linear(in_features=89, out_features=1, bias=True)
          (3): Sigmoid()
        )
      )
      (conv): Conv2d(178, 64, kernel_size=(3, 1), stride=(1, 1), padding=(1, 0))
      (bn): BatchNorm2d(64, eps=1e-05, momentum=0.1, affine=True, track_running_stats=True)
      (relu): ReLU()
    )
    (1): AttentionConvBlock(
      (attention): AttentionLayer(
        (attention): Sequential(
          (0): Linear(in_features=64, out_features=32, bias=True)
          (1): ReLU()
          (2): Linear(in_features=32, out_features=1, bias=True)
          (3): Sigmoid()
        )
      )
      (conv): Conv2d(64, 32, kernel_size=(3, 1), stride=(1, 1), padding=(1, 0))
      (bn): BatchNorm2d(32, eps=1e-05, momentum=0.1, affine=True, track_running_stats=True)
      (relu): ReLU()
    )
    (2): AttentionConvBlock(
      (attention): AttentionLayer(
        (attention): Sequential(
          (0): Linear(in_features=32, out_features=16, bias=True)
          (1): ReLU()
          (2): Linear(in_features=16, out_features=1, bias=True)
          (3): Sigmoid()
        )
      )
      (conv): Conv2d(32, 16, kernel_size=(3, 1), stride=(1, 1), padding=(1, 0))
      (bn): BatchNorm2d(16, eps=1e-05, momentum=0.1, affine=True, track_running_stats=True)
      (relu): ReLU()
    )
  )
  (decoder): Sequential(
    (0): AttentionConvBlock(
      (attention): AttentionLayer(
        (attention): Sequential(
          (0): Linear(in_features=16, out_features=8, bias=True)
          (1): ReLU()
          (2): Linear(in_features=8, out_features=1, bias=True)
          (3): Sigmoid()
        )
      )
      (conv): Conv2d(16, 32, kernel_size=(3, 1), stride=(1, 1), padding=(1, 0))
      (bn): BatchNorm2d(32, eps=1e-05, momentum=0.1, affine=True, track_running_stats=True)
      (relu): ReLU()
    )
    (1): AttentionConvBlock(
      (attention): AttentionLayer(
        (attention): Sequential(
          (0): Linear(in_features=32, out_features=16, bias=True)
          (1): ReLU()
          (2): Linear(in_features=16, out_features=1, bias=True)
          (3): Sigmoid()
        )
      )
      (conv): Conv2d(32, 64, kernel_size=(3, 1), stride=(1, 1), padding=(1, 0))
      (bn): BatchNorm2d(64, eps=1e-05, momentum=0.1, affine=True, track_running_stats=True)
      (relu): ReLU()
    )
    (2): ConvTranspose2d(64, 178, kernel_size=(3, 1), stride=(1, 1), padding=(1, 0))
  )
)

=== Evaluation Metrics ===
Accuracy: 0.8051
Precision: 0.0477
Recall: 0.5746
F1 Score: 0.0881
ROC-AUC: 0.6918

=== Confusion Matrix ===
[[21792  5148]
 [  191   258]]

=== Classification Report ===
{'0.0': {'precision': 0.9913114679525088, 'recall': 0.8089086859688196, 'f1-score': 0.8908693252662346, 'support': 26940}, '1.0': {'pre
…
